#全部加p2+全部sftv1--------------------------=====================---------------------------
# parameters
nc: 3  # number of classes
depth_multiple: 1.00  # model depth multiple
width_multiple: 1.00  # layer channel multiple

# anchors
anchors:
  - [10,13, 16,30, 33,23]   # P3/8
  - [30,61, 62,45, 59,119]  # P4/16
  - [116,90, 156,198, 373,326]  # P5/32

# YOLOv5 backbone
backbone:
  # [from, number, module, args]
  # Two Stream
  [
    ######### TransformerBlock One #############
    # stream one
    [-1, 1, Focus, [64, 3]],    # 0-P1/2
    [-1, 1, Conv, [128, 3, 2]], # 1-P2/4
    [-1, 3, C3, [128]],   # 2-P2/4
    [-1, 1, Conv, [256, 3, 2]],  # 3-P3/8
    [-1, 9, C3, [256]],   # 4-P3/8
    [-1, 1, SimAM, [256]], #5
    # stream two
    [-4, 1, Focus, [64, 3]],    # 5-P1/2 6
    [-1, 1, Conv, [128, 3, 2]], # 6-P2/4 7
    [-1, 3, C3, [128]],   # 7-P2/4 8
    [-1, 1, Conv, [256, 3, 2]],  # 8-P3/8 9
    [-1, 9, C3, [256]],   # 9-P3/8 10
    [-1, 1, SimAM, [256]], #11

    ######### TransformerBlock Two #############
   # transformer fusion
    [[5,11], 1, SpatialFeatureEnhance_V1_sftv1, [256]],   # 10-P3/8  12
    [[4,12], 1, Add2, [256,0]],    # 11-P3/8 stream one x+trans[0] 13

    [[10,12], 1, Add2, [256,1]],    # 12-P3/8 stream two x+trans[1] 14



   ######### TransformerBlock Three #############
   # stream one
    [13, 1, Conv, [512, 3, 2]],   # 13-P4/16 15
    [-1, 9, C3, [512]],   # 14-P4/16 16
    [-1, 1, SimAM, [512]], #17
   # stream two
    [14, 1, Conv, [512, 3, 2]],   # 15-P4/16 18
    [-1, 9, C3, [512]],   # 16-P4/16 19
    [-1, 1, SimAM, [512]], #20
   # transformer fusion
    [[17,20], 1, SpatialFeatureEnhance_V1_512_sftv1, [512]],   # 17-P3/8 21
    [[16,21], 1, Add2, [512,0]],    # 18-P3/8 stream one x+trans[0] 22
    [[19,21], 1, Add2, [512,1]],    # 19-P3/8 stream two x+trans[1] 23


    ######### TransformerBlock Four #############
    # stream one
    [22, 1, Conv, [1024, 3, 2]],    # 20-P5/32 24
    [-1, 1, SPP, [1024, [5, 9, 13]]],   # 21-P5/32 25
    [-1, 3, C3, [1024, False]],   # 22-P5/32 26
    [-1, 1, SimAM, [512]],   #27
    # stream two
    [23, 1, Conv, [1024, 3, 2]],    # 23-P5/32 28
    [-1, 1, SPP, [1024, [5, 9, 13]]],   # 24-P5/32 29
    [-1, 3, C3, [1024, False]],   # 25-P5/32 30
    [-1, 1, SimAM, [512]], #31
    # transformer fusion
    [[27,31], 1, SpatialFeatureEnhance_V1_1024_sftv1, [1024]],    # 26-P5/32 32
    [[26,32], 1, Add2, [1024,0]],    # 27-P5/32 stream one x+trans[0] 33
    [[30,32], 1, Add2, [1024,1]],    # 28-P5/32 stream two x+trans[1] 34


    ######### Add Block #############
    [[13,14], 1, Add, [1]],   # 29-P3/8 fusion backbone P3 33
    [[22,23], 1, Add, [1]],   # 30-P4/16 fusion backbone P4 34
    [[33,34], 1, Add, [1]],   # 31-P5/32 fusion backbone P5 35

  ]


# YOLOv5 head
head:
  [
    [-1, 1, Conv, [512, 1, 1]],   # 32
    [-1, 1, nn.Upsample, [None, 2, 'nearest']],   # 33
    [[-1,36], 1, Concat, [1]],    # 34 cat backbone P4
    [-1, 3, C3, [512, False]],    # 35

    [-1, 1, Conv, [256, 1, 1]],   # 36
    [-1, 1, nn.Upsample, [None, 2, 'nearest']],   # 37
    [[-1,35], 1, Concat, [1]],    # 38 cat backbone P3
    [-1, 3, C3, [256, False]],    # 39 (P3/8-small)

    [-1, 1, Conv, [256, 3, 2]],   # 40
    [[-1,42], 1, Concat, [1]],    # 41 cat head P4
    [-1, 3, C3, [512, False]],    # 42 (P4/16-medium)

    [-1, 1, Conv, [512, 3, 2]],    # 43
    [[-1,38], 1, Concat, [1]],     # 44 cat head P5
    [-1, 3, C3, [1024, False]],     # 45 (P5/32-large)

    [[45, 48, 51], 1, Detect, [nc, anchors]],   # Detect(P3, P4, P5)
  ]

